…
Handler', 'formatter': 'simple', 'stream': 'ext://sys.stdout'}, 'file': {'class': 'logging.FileHandler', 'formatter': 'simple', 'filename': 'hydra_train.log'}}, 'root': {'level': 'INFO', 'handlers': ['console', 'file']}, 'disable_existing_loggers': False}}
<home>/fairseq/myenv/lib/python3.8/site-packages/torch/nn/utils/weight_norm.py:134: FutureWarning: torch.nn.utils.weight_norm is deprecated in favor of torch.nn.utils.parametrizations.weight_norm.
WeightNorm.apply(module, name, dim)
Wav2Vec2Model(
(feature_extractor): ConvFeatureExtractionModel(
(conv_layers): ModuleList(
(0): Sequential(
(0): Conv1d(1, 512, kernel_size=(10,), stride=(5,), bias=False)
(1): Dropout(p=0.0, inplace=False)
(2): Fp32GroupNorm(512, 512, eps=1e-05, affine=True)
(3): GELU(approximate='none')
)
(1-4): 4 x Sequential(
(0): Conv1d(512, 512, kernel_size=(3,), stride=(2,), bias=False)
(1): Dropout(p=0.0, inplace=False)
(2): GELU(approximate='none')
)
(5-6): 2 x Sequential(
(0): Conv1d(512, 512, kernel_size=(2,), stride=(2,), bias=False)
(1): Dropout(p=0.0, inplace=False)
(2): GELU(approximate='none')
)
)
)
(post_extract_proj): Linear(in_features=512, out_features=768, bias=True)
(dropout_input): Dropout(p=0.0, inplace=False)
(dropout_features): Dropout(p=0.1, inplace=False)
(quantizer): None
(project_q): None
(encoder): TransformerEncoder(
(pos_conv): Sequential(
(0): Conv1d(768, 768, kernel_size=(128,), stride=(1,), padding=(64,), groups=16)
(1): SamePad()
(2): GELU(approximate='none')
)
(layers): ModuleList(
(0-11): 12 x TransformerSentenceEncoderLayer(
(self_attn): MultiheadAttention(
(dropout_module): FairseqDropout()
(k_proj): Linear(in_features=768, out_features=768, bias=True)
(v_proj): Linear(in_features=768, out_features=768, bias=True)
(q_proj): Linear(in_features=768, out_features=768, bias=True)
(out_proj): Linear(in_features=768, out_features=768, bias=True)
)
(dropout1): Dropout(p=0.0, inplace=False)
(dropout2): Dropout(p=0.1, inplace=False)
(dropout3): Dropout(p=0.0, inplace=False)
(self_attn_layer_norm): LayerNorm((768,), eps=1e-05, elementwise_affine=True)
(fc1): Linear(in_features=768, out_features=3072, bias=True)
(fc2): Linear(in_features=3072, out_features=768, bias=True)
(final_layer_norm): LayerNorm((768,), eps=1e-05, elementwise_affine=True)
)
)
(layer_norm): LayerNorm((768,), eps=1e-05, elementwise_affine=True)
)
(layer_norm): LayerNorm((512,), eps=1e-05, elementwise_affine=True)
(final_proj): None
)
[2025-06-22 11:25:48,532][fairseq_cli.train][INFO] - Wav2VecCtc(
(w2v_encoder): Wav2VecEncoder(
(w2v_model): Wav2Vec2Model(
(feature_extractor): ConvFeatureExtractionModel(
(conv_layers): ModuleList(
(0): Sequential(
(0): Conv1d(1, 512, kernel_size=(10,), stride=(5,), bias=False)
(1): Dropout(p=0.0, inplace=False)
(2): Fp32GroupNorm(512, 512, eps=1e-05, affine=True)
(3): GELU(approximate='none')
)
(1-4): 4 x Sequential(
(0): Conv1d(512, 512, kernel_size=(3,), stride=(2,), bias=False)
(1): Dropout(p=0.0, inplace=False)
(2): GELU(approximate='none')
)
(5-6): 2 x Sequential(
(0): Conv1d(512, 512, kernel_size=(2,), stride=(2,), bias=False)
(1): Dropout(p=0.0, inplace=False)
(2): GELU(approximate='none')
)
)
)
(post_extract_proj): Linear(in_features=512, out_features=768, bias=True)
(dropout_input): Dropout(p=0.0, inplace=False)
(dropout_features): Dropout(p=0.1, inplace=False)
(quantizer): None
(project_q): None
(encoder): TransformerEncoder(
(pos_conv): Sequential(
(0): Conv1d(768, 768, kernel_size=(128,), stride=(1,), padding=(64,), groups=16)
(1): SamePad()
(2): GELU(approximate='none')
)
(layers): ModuleList(
(0-11): 12 x TransformerSentenceEncoderLayer(
(self_attn): MultiheadAttention(
(dropout_module): FairseqDropout()
(k_proj): Linear(in_features=768, out_features=768, bias=True)
(v_proj): Linear(in_features=768, out_features=768, bias=True)
(q_proj): Linear(in_features=768, out_features=768, bias=True)
(out_proj): Linear(in_features=768, out_features=768, bias=True)
)
(dropout1): Dropout(p=0.0, inplace=False)
(dropout2): Dropout(p=0.1, inplace=False)
(dropout3): Dropout(p=0.0, inplace=False)
(self_attn_layer_norm): LayerNorm((768,), eps=1e-05, elementwise_affine=True)
(fc1): Linear(in_features=768, out_features=3072, bias=True)
(fc2): Linear(in_features=3072, out_features=768, bias=True)
(final_layer_norm): LayerNorm((768,), eps=1e-05, elementwise_affine=True)
)
)
(layer_norm): LayerNorm((768,), eps=1e-05, elementwise_affine=True)
)
(layer_norm): LayerNorm((512,), eps=1e-05, elementwise_affine=True)
(final_proj): None
)
(final_dropout): Dropout(p=0.0, inplace=False)
(proj): Linear(in_features=768, out_features=32, bias=True)
)
)
[2025-06-22 11:25:48,533][fairseq_cli.train][INFO] - task: AudioFinetuningTask
[2025-06-22 11:25:48,533][fairseq_cli.train][INFO] - model: Wav2VecCtc
[2025-06-22 11:25:48,533][fairseq_cli.train][INFO] - criterion: CtcCriterion
[2025-06-22 11:25:48,533][fairseq_cli.train][INFO] - num. shared model params: 94,396,320 (num. trained: 94,396,320)
[2025-06-22 11:25:48,534][fairseq_cli.train][INFO] - num. expert model params: 0 (num. trained: 0)
…
